app/.dart_tool/chrome-device/Default/optimization_guide_prediction_model_downloads/a8eaa156-a9ec-48fe-b5ae-466bfa33fa77/model.tflite (tflite, 410364 bytes, 166 tensors)

context_transformer_0/bottleneck_input/norm/add f4 [32]
000000 ea 16 a6 bc af 1c ca bb e0 81 e6 bb a4 03 0d 3d
       -0.020274598 -0.00616797 -0.0070345253 0.0344273
000010 80 ae de bc 07 f1 b5 3d 36 c4 8d 3d d4 cb 13 bd
       -0.027182817 0.08883863 0.0692219 -0.036083058
000020 0f d7 8c 3c 99 9c 1b bd 3e 83 6a 3c 54 8c 8a bd
       0.017192392 -0.03799114 0.014313517 -0.06765047
000030 1a 32 a3 3a 7d 13 29 3c c7 e0 a7 bc 84 f2 2c 3c
       0.0012450845 0.010319588 -0.020492924 0.010555867
000040 b7 ff 1a 3c 48 79 85 bd 9c a0 31 3d eb 91 09 bc
       0.009460381 -0.06517273 0.04336606 -0.008396606
000050 78 79 a8 3d d2 be 8b 3d 92 b9 15 bd d4 b2 96 3d
       0.08226293 0.068235055 -0.036553927 0.073583275
000060 f8 80 2f bc a4 92 9c 3d 94 de 8c 3d 5e 8e 5e 3d
       -0.010711901 0.07645157 0.06878391 0.05433499
000070 88 9e 3c 3e bc c3 be 3d ab e3 df 3c 9b a5 85 bc
       0.1841985 0.09314677 0.02733024 -0.016314318

context_transformer_1/bottleneck_input/norm/add f4 [32]
000000 5f 02 30 be 46 c2 ff 3b 12 f8 04 bd 31 24 ff 3c
       -0.17188405 0.0078051416 -0.03246314 0.031145187
000010 9f 35 0c be 96 52 10 bd 48 21 0f be ee 52 0b 3d
       -0.1369233 -0.03523501 -0.1397754 0.034014635
000020 c8 29 89 bd e0 90 14 be 5f 3c 1c bd c3 d0 ee bd
       -0.06697422 -0.1450839 -0.03814351 -0.11660912
000030 cd 4c 30 3d 4e eb 22 3e 04 fb 42 be 2c 64 eb bd
       0.043041993 0.15910074 -0.19041067 -0.11493716
000040 c3 72 34 bd 86 b6 5a 3d 55 10 dd bd ff 37 31 3e
       -0.044054758 0.053396724 -0.10794131 0.17306517
000050 7a f1 1e 3e c2 b3 14 be 8c ca 70 bd 05 78 fe 3d
       0.15521803 -0.14521697 -0.058786914 0.12425236
000060 c8 86 51 be 97 fb 33 3d a1 2b bb bc 96 f9 8e 3c
       -0.20461571 0.043941107 -0.022847952 0.017452996
000070 6b 61 e3 3d 88 21 f5 3c f8 71 4e bc d8 68 69 bd
       0.111025654 0.029923216 -0.012600414 -0.056984752

mention_transformer_0/bottleneck_input/norm/add f4 [32]
000000 85 da 89 3d 90 54 a6 be b8 fb a4 bd de 92 31 3e
       0.067311324 -0.3248639 -0.08055824 0.17341182
000010 45 70 f4 bd 01 10 b5 3d 10 8b 11 3e 58 3b 36 3d
       -0.11935476 0.08840943 0.14213204 0.04449019
000020 0e b8 6c bc 80 35 69 3c 59 81 11 3e 19 fe 0a 3e
       -0.014448179 0.014233947 0.14209498 0.13573493
000030 c8 84 2f be d2 32 83 3e 79 8d 2c be 40 68 00 3e
       -0.17140496 0.2562471 -0.16850843 0.12539768
000040 09 75 a3 3d 4e 9b 95 bd 20 72 86 3e 98 02 a4 3d
       0.07981307 -0.07305013 0.26258945 0.08008307
000050 76 ce 0f bc c4 28 93 bc fb e0 0c 3e 33 9e 88 bd
       -0.0087772515 -0.017963775 0.13757698 -0.06670799
000060 b8 dc 92 3b ca 07 76 3d 30 46 8e bd fa 55 9a 3d
       0.004481878 0.060066022 -0.06946981 0.0753593
000070 7a a0 94 bc 76 b4 27 bb 15 5e 52 be 94 90 46 3e
       -0.018142927 -0.002558974 -0.20543702 0.1939109

mention_transformer_1/bottleneck_input/norm/add f4 [32]
000000 0e 44 bd 3d ab fa 8d be 2c 0e 4b 3e 00 86 9e bd
       0.09241496 -0.27730307 0.19829625 -0.07740402
000010 0a c8 70 3e ac 8e 77 bd 1a e4 af bd 16 c2 b8 bd
       0.23513809 -0.060438797 -0.08588429 -0.09021394
000020 7c 9f 84 bc 87 1d db 3e 9d 57 2a 3d 2a 01 9d 3d
       -0.01618933 0.42795965 0.04158746 0.07666238
000030 48 c6 e4 3d 65 3c 87 bd d0 51 5e 3b 0d 04 91 be
       0.11170632 -0.06603316 0.0033923276 -0.28323403
000040 f6 9d 13 3e 09 39 c7 bd 51 f1 f5 3d 17 d6 7b be
       0.14415726 -0.097276755 0.12008918 -0.24593388
000050 56 90 ec 3d 44 a5 04 3e dd 48 ea 3d 1e 02 e4 3e
       0.115509674 0.12953669 0.11439679 0.44532865
000060 af 8b 67 3e 54 20 65 be a5 06 66 3e c4 6b 5c 3e
       0.22611879 -0.22375613 0.22463472 0.21525484
000070 2f 95 85 3e e6 a7 92 bb 1f 0b 4a 3e f3 0d 3f 3d
       0.2609038 -0.0044755815 0.19730805 0.046644162

context_transformer_0/attention/value/add;context_transformer_0/attention/value/einsum/Einsum;context_transformer_0/attention/value/add/ReadVariableOp/resource f4 [32]
000000 5e 74 81 3b fc ba ba bb 88 f3 cc 3c 8b 5b 42 bd
       0.0039506396 -0.00569856 0.025018468 -0.047450583
000010 2a dc e2 bc ac 02 5d bd 4c 57 ec bc 80 73 40 bd
       -0.027692873 -0.053957626 -0.02885022 -0.04698515
000020 5c 6d 0e 3d 15 73 6f 3c 13 b2 84 3c 2a c7 f8 3d
       0.034772262 0.01461484 0.016198194 0.121473625
000030 c0 fc 53 bd f1 f2 6d 3d 8f a0 17 3c c3 98 3f bd
       -0.051754713 0.058093015 0.009254589 -0.046776544
000040 12 16 3c 3d 27 d3 0e 3e 4a 08 cd 3c 74 31 71 bc
       0.045919485 0.13947736 0.025028367 -0.014721263
000050 32 1c a5 39 32 6f 47 bd 19 69 8f bc 44 18 11 3d
       0.0003149226 -0.04869003 -0.01750617 0.035423532
000060 57 85 eb 3c 89 cb 83 3d 55 d8 72 bc a7 ce 77 bd
       0.028750105 0.064353056 -0.014822085 -0.060499813
000070 9e 11 27 3d 81 fd 38 3d 9d 2d 27 bd 14 e7 b9 bd
       0.040788285 0.045163635 -0.040814985 -0.09077278

context_transformer_0/bottleneck_input/norm/mul f4 [32, 32]
000000 81 ba d0 bd 71 77 43 be 7a c3 9e 3e 56 ed 20 3e
       -0.10191823 -0.19088532 0.31008512 0.15715536
000010 40 ba 12 be 1e 00 cd bc 5e b0 94 be 16 b4 2a be
       -0.14328861 -0.02502447 -0.29040807 -0.1667026
000020 44 fe d1 bc 37 e5 64 be 88 d3 61 bb 7a cd aa 3c
       -0.025633939 -0.22353064 -0.0034458358 0.020849932
000030 8f ff 58 bd b8 19 0a 3f cd b9 d7 3e 43 cd 08 bd
       -0.052978095 0.53945494 0.42133942 -0.033398878
000040 7b 5f 27 be f0 c1 16 3d 3c 5b 00 bf b1 cd 9d 3b
       -0.16345017 0.036806047 -0.5013921 0.00481578
000050 ed 24 d1 3c 36 67 cb 3d e0 16 7d be 51 26 a6 3e
       0.025530303 0.09931795 -0.24715757 0.32451108
000060 67 51 d7 be 26 fa b7 be d7 49 b4 be 4f c5 60 be
       -0.42054293 -0.35933036 -0.35212585 -0.21950267
000070 c4 80 9b be e9 24 75 be cf ca 5c 3e 0a 73 72 3c
       -0.30371678 -0.23939861 0.2156174 0.014797935
000080 a1 89 b6 3a d2 11 56 be 1f 2f 63 3e dc 41 13 3c
       0.0013926515 -0.20905235 0.22185944 0.00898787
000090 f7 7f 8a 3e a4 78 ae 3e 78 38 e2 bd 1e 29 8d bd
       0.27050754 0.34076416 -0.11045927 -0.06892608
0000a0 c5 32 39 bd 5e 7f 57 3c 4e b8 98 3e 27 47 58 3e
       -0.045214433 0.013152925 0.29828113 0.21120892
0000b0 51 5e 90 3e 19 2d 9b 3d 9c 82 ce be a1 e4 f5 3d
       0.28196958 0.07576961 -0.40334022 0.12006498
0000c0 8e 0c b5 3e 8e e5 0e be 12 2c bd 3e 34 71 5d be
       0.3536114 -0.13954756 0.36947685 -0.21625215
0000d0 07 d3 58 bb 34 12 46 3d c4 d9 c6 bd 99 fe 12 be
       -0.0033084766 0.048357204 -0.09709504 -0.14354934
0000e0 d3 cc 0c 3e 4d 13 4f be e8 c0 03 3e a6 f3 90 3e
       0.13750009 -0.20222206 0.12866557 0.2831089
0000f0 fd a6 a6 be 7b b5 c3 bd 33 7e f2 be 75 be 01 bf
       -0.32549277 -0.09556099 -0.47361907 -0.5068124
000100 29 56 31 bf 63 e2 22 be 6d 73 42 be b3 a6 89 be
       -0.69272095 -0.15906672 -0.18989344 -0.26884994
000110 91 d7 b0 3e 75 98 95 be 52 46 27 bf 8c be a1 3e
       0.34539464 -0.29217878 -0.65341675 0.31590688
000120 6f 7b 65 be 53 b0 de 3e 5a 30 8c be df 54 cc bd
       -0.22410367 0.434939 -0.2738064 -0.099771254
000130 48 c5 a9 3e 96 a5 19 3d 99 d3 0e be 6c ca 9d 3e
       0.33158326 0.03751143 -0.13947906 0.30818498
000140 ca 5c 6f 3e b4 54 ec bd 8f 49 37 3e ba 72 d5 be
       0.2337524 -0.11539593 0.17899154 -0.41689092
000150 79 06 a1 be 30 fe a6 bd 70 c9 9e bc 2b e4 06 3e
       -0.3145025 -0.08153951 -0.019383162 0.13172977
000160 46 42 20 be 89 3a 8e be d7 44 96 3e a7 13 7f 3e
       -0.15650281 -0.27779034 0.29349396 0.2490984
000170 ca a3 fe be f0 c8 98 bd 13 02 be be e0 f2 0a bd
       -0.49734336 -0.07460201 -0.37110958 -0.03392303
000180 3b 5f 07 3d 62 68 91 bd 37 10 a3 3c 2a e0 99 be
       0.033049803 -0.070999876 0.019905193 -0.30053836
000190 49 50 43 be 9c eb 9a 3b 6e 52 64 be 75 92 32 3e
       -0.19073595 0.004727794 -0.2229707 0.17438681
0001a0 f0 e0 e5 bd 76 e9 2c ba 55 9c 0c be bc a7 82 3e
       -0.11224544 -0.00065960677 -0.13731511 0.25518596
0001b0 35 0e 02 3f 30 27 09 3e c6 4c 37 be bb 32 91 3e
       0.5080293 0.13393855 -0.1790038 0.28359017
0001c0 bd db 1b bf 7c fb 89 3e e2 4b 72 be 1e 2a 7a be
       -0.6088217 0.2694968 -0.2366176 -0.24430129
0001d0 fb 6e 27 be 04 f1 47 bc 34 1a ba bd 3b 7f 8d be
       -0.1635093 -0.012203459 -0.09087029 -0.27636132
0001e0 8a b6 34 bf b6 b0 72 3e 66 ce 63 be 00 35 6d 3d
       -0.7059103 0.23700222 -0.22246704 0.057911873
0001f0 f1 7b 1f bd 03 9f 6e be 1e dc fd bd c0 ce 4e bf
       -0.03893656 -0.23302846 -0.123955 -0.80784225
000200 44 99 dc 3d 03 e8 a5 3c 23 34 a4 3d 59 3a bf 3d
       0.107714206 0.020252233 0.08017757 0.09337301
000210 2e e0 09 be c8 fa d3 3d a9 68 ce 3d 49 a6 61 3e
       -0.13464424 0.10350567 0.10078556 0.22036089
000220 b0 4e 40 be fd 8a a2 3e 63 13 d1 3e b3 01 33 3e
       -0.18780017 0.31746665 0.40835103 0.17481117
000230 46 22 70 be fb c0 c4 bd 8e de 41 3e 6d ee 54 3d
       -0.23450574 -0.096071206 0.18932554 0.051985193
000240 40 b8 01 3f af b4 42 3e e7 88 99 3e 37 d4 91 bd
       0.5067177 0.19014238 0.2998726 -0.07120555
000250 c1 ab 84 bf 09 5d fe be d7 55 c3 3e ce 06 a7 be
       -1.0364915 -0.49680355 0.38151428 -0.3262238
000260 10 b8 aa bc 91 2e 98 3d 95 7b 12 3e 0e 1f ae 3a
       -0.020839721 0.07430757 0.14304955 0.0013284402
000270 23 10 be be f1 95 a5 bd 33 5c 8d 3e 31 38 bc 3e
       -0.37121686 -0.0808524 0.27609405 0.3676162
000280 72 d3 0d bc 3e 1e dd bd b4 a3 04 be 3a 0d 16 3d
       -0.0086563695 -0.10796784 -0.12953073 0.036633708
000290 f3 9a 09 be 7c 82 05 be e4 3a 8d be e9 65 ab 3e
       -0.13438015 -0.13038057 -0.27583992 0.3347619
0002a0 1e ba 70 3e 5b b0 45 be e6 03 d4 be 84 32 88 3e
       0.23508498 -0.19305556 -0.41409224 0.2660104
0002b0 f4 97 b9 3c cc 19 8f 3e 66 af b9 3e e1 13 8f 3e
       0.022655465 0.2794937 0.3626663 0.27944854
0002c0 97 8c 38 3d 38 36 fd bc 24 9a 8f 3e 1a fd 00 3e
       0.045055952 -0.030909643 0.28047287 0.1259655
0002d0 3e b3 88 3e 9c ca cc be e8 e7 10 3d 29 11 25 bd
       0.2669925 -0.3999833 0.035377413 -0.04029957
0002e0 40 62 55 3e 7b 51 53 be 44 69 57 be 11 7c 6c 3b
       0.2083826 -0.20636551 -0.2103625 0.0036084692
0002f0 55 fd 9c be e7 a9 63 be 48 df e4 3d da 06 64 3e
       -0.30662027 -0.22232781 0.111754 0.22268239
000300 37 0b e8 3d 4c 0b 01 3e f0 9a c2 bd 15 59 ae bd
       0.11330264 0.12601966 -0.09502208 -0.08513085
000310 18 6e c9 3e cc 65 55 3c 9d 9d b1 3d 60 43 b6 be
       0.39341807 0.013024759 0.086726405 -0.35598278
000320 c1 cd 99 3e b9 0e 9e bd 11 a3 b1 3e 48 2d 14 3e
       0.3003979 -0.07717652 0.34694722 0.14470398
000330 57 aa 56 bd e2 39 81 be dd c1 98 bd 0e 55 64 be
       -0.052408542 -0.25239474 -0.074588515 -0.22298071
000340 d0 07 1f be 67 b8 01 be c5 2d df 3e 34 b1 a6 3d
       -0.15530324 -0.12668 0.43589607 0.081392676
000350 9e 99 48 bf 40 ea c4 3c fa 60 b0 3e 9d a6 15 3e
       -0.783594 0.02403748 0.34448987 0.14614339
000360 af 33 a1 3e 27 39 b9 be 52 c0 cf 3c 13 8e 3f be
       0.31484744 -0.36176416 0.02536026 -0.18706541
000370 28 16 5e be 48 0e 3f be ae 2d ad be c7 d5 58 3e
       -0.2168814 -0.18657792 -0.33823913 0.211753
000380 8b 89 11 be 1f 1c f5 3d ae 9f 89 bd 0f d6 84 3d
       -0.14212625 0.11968254 -0.067199096 0.06486141
000390 41 5b 04 bd df 38 cd bb 2e e7 ed bd 80 54 bf be
       -0.03231359 -0.006262883 -0.1161636 -0.37369156
0003a0 df ac 3b be 60 8c 86 3c 6e 08 8e bd f5 73 a0 3e
       -0.18327664 0.016424358 -0.069352016 0.31338468
0003b0 ab 05 98 bd d0 50 02 3f 2e 78 d8 3d a3 65 a0 3e
       -0.07422956 0.5090456 0.105697975 0.31327543
0003c0 1e 0b b2 bc 19 55 b0 bc 50 3a c2 3d ba b5 fd 3d
       -0.021733817 -0.021524953 0.094837785 0.12388177
0003d0 2a 67 80 3e f1 3a 48 3e 97 cc 8e bc af 80 9e bd
       0.25078708 0.19553734 -0.01743154 -0.07739388
0003e0 c6 77 7b 3d 00 e3 c6 3d 3e b9 ce 3b 1c 3d 23 3d
       0.06139352 0.097112656 0.0063087037 0.0398532
0003f0 6c 97 af bd cc 8c 81 bd 64 b3 3a 3e 37 9f a7 bc
       -0.08573803 -0.06325683 0.18232495 -0.020461662

context_transformer_0/kq_shared_bottleneck/norm/mul;context_transformer_0/kq_shared_bottleneck/norm/add;context_transformer_0/attention/key/einsum/Einsum;context_transformer_0/attention/key/add;context_transformer_0/attention/value/einsum/Einsum;context_transformer_0/attention/key/add/ReadVariableOp/resource f4 [32]
000000 20 db c7 3d 1c 01 67 bd e4 7a 04 bc 17 9b 72 bb
       0.09758592 -0.056397542 -0.00808594 -0.003701871
000010 66 50 76 bc fd bf 29 bd ea 48 9f 3d fa 9c d3 bd
       -0.015033817 -0.04144286 0.07777579 -0.10332675
000020 46 d0 f5 3d 4a 4d 7f be 5d 87 e3 3d 94 c6 0c 3e
       0.12002616 -0.24931827 0.11109803 0.13747627
000030 77 f8 38 be a9 81 b6 3e 52 06 b9 bd df 86 e1 be
       -0.18063532 0.35645798 -0.09034409 -0.4404821
000040 09 d6 f7 3b c2 fe c9 bd c3 3d b6 bd c4 5e 67 3d
       0.007563357 -0.09863044 -0.08898499 0.05648686
000050 d5 ba 42 3e 66 ac 3b 3e 14 53 ca 3b fb 67 40 3e
       0.19016583 0.18327484 0.0061744545 0.18789665
000060 0d 42 04 be fa 3e 90 3e ef 6c 2a be f3 d8 aa bd
       -0.12915821 0.28173047 -0.16643117 -0.08342161
000070 b0 c7 50 be f7 f7 72 3d ff c8 af 3e 87 29 7e 3e
       -0.20388675 0.05931851 0.34333035 0.24820529

context_transformer_0/kq_shared_bottleneck/norm/mul;context_transformer_0/kq_shared_bottleneck/norm/add;context_transformer_0/attention/key/einsum/Einsum;context_transformer_0/attention/key/add;context_transformer_0/attention/value/einsum/Einsum;context_transformer_0/attention/key/add/ReadVariableOp/resource1 f4 [32, 32]
000000 c2 b8 94 bd 31 b9 7c be 6f 97 0b 3e e6 60 41 be
       -0.07261802 -0.2468002 0.13631986 -0.1888462
000010 ab 39 71 3d 7d df dd bc a4 57 09 3e 71 08 db bd
       0.058892887 -0.027084107 0.13412338 -0.106949694
000020 93 74 ff be fd 4a da be ab 69 0e be bb e3 8c 3c
       -0.49893627 -0.42635337 -0.13907497 0.017198434
000030 a0 7d 8e 3d 29 08 d4 3d 93 f4 04 bd 1b 3a 84 3e
       0.06957555 0.10353119 -0.032459807 0.2582558
000040 ba 3d 3e bc e6 a3 02 3e 0a b8 ca be 63 57 06 3e
       -0.011611396 0.12757835 -0.39593536 0.13119273
000050 c6 ef 32 bd 2d 6f 05 be 75 d7 33 be 0a 88 18 be
       -0.043685697 -0.13030691 -0.17562659 -0.14895645
000060 6e 36 e8 bc b2 1e e5 bc 02 60 ef bd 3a 0f d0 3e
       -0.028346267 -0.027968738 -0.11688234 0.40636617
000070 9a cc be bd 0a 8d 01 bf 8b 5b 81 3e ab c5 31 bd
       -0.093163684 -0.50605834 0.25265154 -0.0434014
000080 19 d5 a0 be 1f 08 dc 3d 6c 7e e4 3d 26 97 a7 3d
       -0.3141258 0.107437365 0.111569256 0.08183126
000090 fc 6c 5d 3e 55 0d 34 bd 0f f8 6b be 64 77 bd 3e
       0.21623605 -0.043958027 -0.23043846 0.3700515
0000a0 cd 9b 4d bd 0c 1b 1b 3e 73 64 3a 3e a5 9a b5 bc
       -0.05019741 0.15147036 0.18202381 -0.022168467
0000b0 f4 13 6a 3e a8 f3 54 be a2 76 e2 3c 25 89 5b 3e
       0.22859174 -0.20796072 0.02764446 0.21439035
0000c0 c4 9d 12 bd f6 ea 14 bf d7 3f 8c 3e 44 5a c6 be
       -0.03579499 -0.5817102 0.27392456 -0.38740742
0000d0 68 27 94 3d e0 7d f2 3d 59 b5 35 3e 7c 40 9a be
       0.07234079 0.11840415 0.1774496 -0.30127323
0000e0 e7 bd 76 bc 9f a2 12 be 12 06 ad 3e 80 33 03 3d
       -0.015059925 -0.14319848 0.33793694 0.032031536
0000f0 fa 26 9f 3e b0 c0 3e 3e 6d c5 c0 bc 89 28 91 3d
       0.31084424 0.18628192 -0.02353164 0.070878096
000100 8c 85 00 bf 62 27 5c 3e 10 d6 08 be 15 e3 d1 bc
       -0.50203776 0.21499398 -0.13362908 -0.025620976
000110 63 5c e2 be d3 5b 13 be 9e 39 7f 3e 9d dd e3 bd
       -0.4421111 -0.14390497 0.24924323 -0.11126254
000120 24 52 82 3d 4b c8 38 3f 1f 44 a1 3d ac b2 b0 3d
       0.06363323 0.7218062 0.07874321 0.08627829
000130 73 95 c4 3d c3 0b c3 3d 46 43 0f be 07 92 7f 3d
       0.09598818 0.09523728 -0.13990507 0.062395122
000140 e3 e5 1a bb 9c da 47 3e 50 da 88 3d 99 04 6e bd
       -0.0023635558 0.19516987 0.06682265 -0.058109853
000150 57 66 9a 3d 8f 71 12 be 4a dd b9 be d5 fb 70 3e
       0.07539051 -0.14301132 -0.36301643 0.23533566
000160 77 33 c5 3c 83 c2 f6 3d 77 6e 9e 3c f4 b4 80 bd
       0.024072392 0.12048819 0.019339783 -0.06284514
000170 49 12 51 3e 9c fd 55 3e c1 96 82 3e 97 12 b8 3d
       0.20417131 0.20897526 0.2550564 0.08987921
000180 4b 28 64 be e2 0d 1c 3e f6 de 7a 3e 11 98 2d 3e
       -0.22280996 0.15239671 0.24499115 0.1695254
000190 43 58 e6 3e cd 51 8e be 85 8b 8a 3d 90 3f 8f 3d
       0.44989213 -0.27796784 0.067648925 0.069945455
0001a0 08 bc f6 3e 11 f5 84 3e d2 28 14 3e 7f 22 eb 3d
       0.4819033 0.2596822 0.14468697 0.11481189
0001b0 df 76 09 be 81 65 8a 3d f1 0b 95 3e e1 51 28 3c
       -0.13424252 0.067576416 0.29110673 0.010273428
0001c0 94 25 62 be 81 e2 ef be a1 8e 2f 3e 9f eb 6d be
       -0.22084647 -0.46852496 0.17144252 -0.23234414
0001d0 fb 13 e3 3e ee 00 ca 3e da be c3 bd a4 a6 0d bc
       0.4435118 0.39453834 -0.095578864 -0.008645687
0001e0 19 be 7f bc 1e db 82 bd b8 e0 7f be e9 cb 95 3e
       -0.015609288 -0.063894495 -0.24988067 0.29257134
0001f0 be c8 3e 3c 16 aa a5 3e ec b0 1e 3e f1 11 2d 3e
       0.01164454 0.32356328 0.15497178 0.16901375
000200 03 5b 8f 3e 1e 45 1e 3c 2d 4e 87 be 2b b6 24 bd
       0.27999124 0.0096600335 -0.2642683 -0.04021279
000210 f9 5e 1c bf 5f 73 80 3c b4 09 39 be 34 61 0f be
       -0.61082417 0.015680013 -0.18070108 -0.14001924
000220 8e ba bc 3d f2 e9 81 be f6 66 59 be 79 5d 25 3e
       0.0921527 -0.253738 -0.21230683 0.16148938
000230 41 94 36 3d 97 4a 7e be 98 79 ed be b4 75 57 3e
       0.04457498 -0.24833141 -0.4638183 0.21040994
000240 cc 3f d2 3d f0 b4 ef bd 90 5e d6 bb d0 ef 50 bc
       0.102660745 -0.11704433 -0.0065420344 -0.012752488
000250 d9 1e 0a 3c 9d a4 d6 be f6 5a 8f bd 4b 67 2c bd
       0.008430206 -0.41922465 -0.06999771 -0.042090695
000260 c8 f9 20 3e c5 38 a5 bc 1f 1f 53 3d fd f3 5f 3e
       0.15720284 -0.020168671 0.05154335 0.21870418
000270 9b 8d a8 3d 7a 60 97 be ba 0f 8f 3e 13 3f 39 bc
       0.08230134 -0.29565793 0.27941686 -0.011306542
000280 5e c6 22 3f 22 ec fb be 07 dc 74 be e8 f2 5c 3e
       0.63583934 -0.49203593 -0.23912059 0.21577036
000290 f8 b3 85 3e 81 a1 79 be 7e 13 c1 be 9d 33 03 bd
       0.26113868 -0.24378015 -0.37710184 -0.032031644
0002a0 ad 10 98 3e f3 cf 80 bd 48 57 04 be 06 87 d7 bd
       0.29700223 -0.06289663 -0.1292392 -0.105238006
0002b0 1e c3 b0 be 66 11 60 be c8 cc 74 bd ac f1 1a bf
       -0.34523863 -0.21881637 -0.059765607 -0.6052501
0002c0 35 ca 4c 3d fc 47 3d 3e bb 20 6e bd c5 92 43 3e
       0.049997527 0.18484491 -0.058136683 0.19098957
0002d0 3a a5 a2 3e 4f 4e 74 be e5 f8 0e 3f 05 4e 93 3d
       0.31766683 -0.23857997 0.5584853 0.071926154
0002e0 40 2a e0 be e4 0a ca be 5e 37 34 be 21 3c d5 bd
       -0.43782234 -0.39461434 -0.17599246 -0.10411859
0002f0 d7 ca 06 bf dc 64 f4 3e 40 19 17 be d7 04 07 bf
       -0.5265326 0.477332 -0.14755726 -0.5274176
000300 c5 73 f7 3e f8 2c 58 3d b2 bb 7b 3e a3 7d bb bd
       0.48330513 0.05277726 0.24583319 -0.09154823
000310 06 44 23 3d 7b 50 03 3f 7a 77 1e 3d 80 b5 13 be
       0.039859794 0.5129468 0.03868816 -0.14424706
000320 88 ef c7 bd a9 fa 73 bf 7d 08 29 be 21 99 a3 3d
       -0.09762484 -0.9530435 -0.16507144 0.079881914
000330 32 19 6b bd b3 d9 a4 3d 25 c1 87 3e 8e 47 88 3e
       -0.057397075 0.08049335 0.26514545 0.26617092
000340 69 ba 96 3c b3 78 41 3d 37 a1 a4 bd 8f ac 81 3e
       0.018399434 0.04723425 -0.08038562 0.25326964
000350 3d d1 28 bf 3d c9 02 3f 5b 8b 4d 3c e1 d3 ac 3a
       -0.6594427 0.51088315 0.012545432 0.0013185703
000360 e9 f5 41 3e f0 ce cd 3d d8 c1 99 be 0f 37 6f be
       0.18941464 0.10049236 -0.30030704 -0.23360847
000370 1e e4 65 bd a4 2e 3a bb 55 75 a5 be 27 0c 5f 3d
       -0.056125753 -0.0028409148 -0.3231608 0.05445495
000380 49 85 78 3e b5 66 a6 bb f9 f2 e1 be cb 13 c1 3d
       0.24269594 -0.0050781616 -0.44130686 0.09427603
000390 51 b6 30 bf 5e d1 51 bd d6 b4 f9 bd 0c 42 9d be
       -0.6902819 -0.05122506 -0.12192695 -0.30714452
0003a0 5d b9 3c 3e fd 96 b6 bc 50 b4 9a be 8d a6 29 3e
       0.18430085 -0.022288794 -0.30215693 0.1656744
0003b0 e1 ae 04 be f7 52 55 be c4 63 06 bf 56 b6 f6 bd
       -0.12957336 -0.2083243 -0.5249598 -0.120464966
0003c0 6b 13 24 3e b1 80 e4 3d f9 b8 7b 3c c4 04 75 3d
       0.16023032 0.111573584 0.015363925 0.059818998
0003d0 c3 97 ae 3d 66 89 0e bf fc 8b 3c be 07 c6 8e 3d
       0.0852504 -0.55678403 -0.18412775 0.069713645
0003e0 fd 5d dc 3d 95 22 17 bd 64 7b 98 bd 2e 74 02 3e
       0.10760114 -0.036898214 -0.0744541 0.12739632
0003f0 0b 94 eb bd 01 e8 45 be 75 98 bd 3e 9b 84 bb bd
       -0.11502846 -0.19326784 0.37030378 -0.09156152

context_transformer_0/kq_shared_bottleneck/norm/mul;context_transformer_0/kq_shared_bottleneck/norm/add;context_transformer_0/attention/query/einsum/Einsum;context_transformer_0/attention/query/add;context_transformer_0/attention/value/einsum/Einsum;context_transformer_0/attention/query/add/ReadVariableOp/resource;context_transformer_0/attention/Mul;context_transformer_0/attention/Mul/y f4 [32]
000000 b2 6d 81 3d 7a b3 2a 3c 6a f1 99 3d 98 16 d3 bb
       0.06319751 0.010418767 0.07516749 -0.0064419024
000010 c4 ea 23 3e fc 52 c9 bd c1 c5 aa bd 6c b2 48 3e
       0.16007525 -0.09830281 -0.083385 0.19599313
000020 0c ef b2 bd ba 98 4f 3e cd 04 c8 bd 64 38 ba bd
       -0.08737001 0.20273104 -0.09766541 -0.09092787
000030 17 4e 3f 3e aa c2 8f bd f2 75 8f 3d ec 43 9a 3e
       0.18682133 -0.07019551 0.07004918 0.30129945
000040 12 1e 6d be 14 7d 56 3d 64 b3 1f 3e 12 c9 10 bd
       -0.23156002 0.052365378 0.15595776 -0.035348006
000050 93 81 84 be 8f b9 a2 bd 15 92 5e bd 27 7f 9c bd
       -0.25880107 -0.07945549 -0.054338533 -0.0764144
000060 30 eb 1d be d2 dd 08 be d3 b8 4d 3e e5 fa 84 3d
       -0.15421748 -0.13365868 0.20090036 0.06493167
000070 0c 1f 6e 3e 2f d3 25 3c 7f f8 8b be 3d 1c 72 be
       0.23254031 0.010121151 -0.27338025 -0.23643585

context_transformer_0/kq_shared_bottleneck/norm/mul;context_transformer_0/kq_shared_bottleneck/norm/add;context_transformer_0/attention/query/einsum/Einsum;context_transformer_0/attention/query/add;context_transformer_0/attention/value/einsum/Einsum;context_transformer_0/attention/query/add/ReadVariableOp/resource;context_transformer_0/attention/Mul;context_transformer_0/attention/Mul/y1 f4 [32, 32]
000000 7f 00 00 bd 00 cf 1e bd 8f ac 45 3c 6d 2a 97 bc
       -0.031250473 -0.03877163 0.012065067 -0.018452847
000010 68 27 1c 3d dc a8 1b be 27 b2 e0 bc 2b c5 0f 3d
       0.03812352 -0.15201133 -0.0274287 0.035100143
000020 af a8 c8 bd 8d 5f e6 3c 90 8a 3f bc 38 e3 30 bd
       -0.09797799 0.028121734 -0.011690751 -0.043185443
000030 98 d6 6e 3d 60 45 02 bb cd e6 85 3c e5 0c 25 3e
       0.05831012 -0.0019877777 0.016345406 0.161182
000040 3c be a0 bd e7 0b 2a bd 8e b3 93 be 3f 4a b1 3c
       -0.07848784 -0.041515257 -0.28847927 0.021641849
000050 be b9 57 3e 29 e8 72 bd 45 cb 68 bc 04 f0 17 bd
       0.21066949 -0.059303436 -0.0142086195 -0.03709413
000060 31 74 47 3d 8f 88 fe bc 2d 1d 3c bc fa 64 14 3e
       0.048694793 -0.031070976 -0.011481565 0.14491645
000070 e8 7a dc 3b 8a b8 02 be 09 47 63 3d 06 27 7b bc
       0.0067285188 -0.12765709 0.055487666 -0.015329128
000080 5e 08 69 3d ee f9 ef 3c 9f 87 3b 3d 9c 11 67 3d
       0.056892745 0.02929398 0.045783635 0.056413278
000090 47 c5 a1 3d aa c9 4b 3d 69 db ee bd b8 37 d5 3c
       0.07898956 0.04975287 -0.11662943 0.026027545
0000a0 92 97 88 bd 2e a7 8c b4 fe 0b 35 bc 08 cb 87 bd
       -0.06669535 -2.619867e-07 -0.011050222 -0.06630522
0000b0 e1 39 92 3c 31 9f 63 bd 3e 12 d3 bd fc cf a3 bd
       0.017849864 -0.05557174 -0.10306214 -0.07998654
0000c0 38 15 74 3d 4c ea 18 bd 0b 26 82 3e 89 15 0c bd
       0.05959055 -0.037332818 0.2541965 -0.034200225
0000d0 5b fe 80 be 61 ef 82 3d ad cc fd bd a4 2d e7 bc
       -0.25194058 0.06393314 -0.123925544 -0.028220005
0000e0 35 4c 11 3d a2 79 ba 3c 38 76 46 3d 0a 57 7f 3d
       0.035473067 0.022763077 0.048452586 0.062338866
0000f0 27 a7 46 3d 67 70 32 be d1 e5 6d bd cb 78 d4 3d
       0.048499253 -0.1742569 -0.058080498 0.10374602
000100 69 b5 60 bd b4 67 fd 3b d4 51 ca ba cb 5d 68 bd
       -0.054860506 0.0077333096 -0.0015435764 -0.056730073
000110 48 b5 91 bd 0c bc 1a 3c 89 98 04 3e 46 9d 63 bd
       -0.07114655 0.009444248 0.12948813 -0.05556991
000120 b5 ad 8c 3d 3f b4 38 3e d7 1d 46 3d 78 e4 16 3d
       0.068690695 0.18037508 0.0483683 0.03683898
000130 41 0e ec bb 50 14 00 3e ca 12 9f bc 2b c3 4d be
       -0.0072038476 0.12507749 -0.019418139 -0.20093982
000140 08 46 b7 3c 81 5c e2 3d b0 9b a4 3d d8 6f a5 3d
       0.02237226 0.110528 0.080375075 0.08077973
000150 f4 0f d1 bd eb b7 17 bd 66 22 e7 bd 63 ce fb 3d
       -0.10208121 -0.037040632 -0.11285858 0.122952245
000160 64 62 22 3c 92 67 42 3d 98 99 8f 3d c8 08 da bd
       0.009911153 0.047462054 0.070117176 -0.10646206
000170 97 bd aa bd 1e d8 57 bd bc 3d c2 3c a7 d3 55 bc
       -0.08336943 -0.05269634 0.023711078 -0.01305095
000180 08 1c 43 3d ad a9 f5 bb 36 2a 93 3d 17 c1 92 3b
       0.047634155 -0.0074970336 0.071857855 0.0044785845
000190 03 98 e3 3d 20 7a c4 3c 2e b6 a8 3d e7 88 14 bd
       0.11112978 0.023984015 0.08237873 -0.036263373
0001a0 68 a2 08 3e 54 07 d3 bd aa b1 dc 3c f5 74 84 3d
       0.13343203 -0.10304132 0.026940186 0.0646762
0001b0 b9 ac d5 bd f5 f2 f1 3d b0 1a cb 3d 0b 38 46 be
       -0.10433335 0.118139185 0.099171996 -0.19357316
0001c0 d7 95 ee bc 51 13 81 bc fc 84 44 3e 2b 5e 08 3d
       -0.029124184 -0.015756281 0.19191355 0.03329293
0001d0 d2 d2 2a be 25 fd 86 3d 99 c3 cb bd f8 08 21 3c
       -0.16681984 0.06591252 -0.09949417 0.0098287985
0001e0 66 01 93 bc dc 15 5c 3d 26 c3 08 be 2a 99 2f 3e
       -0.017945003 0.053731784 -0.13355693 0.17148271
0001f0 17 d2 f5 bd 99 62 b1 bd f7 0d 20 3d 56 ad ba 3d
       -0.12002962 -0.08661384 0.039075818 0.091150925
000200 18 98 c0 3d 6e 84 31 bc 8e 9b 9d 3c 09 05 9c bd
       0.094040096 -0.010834796 0.019239213 -0.07618148
000210 ff 76 a1 ba 43 1f 1b be 4c d5 f5 bd b5 45 7e 3d
       -0.0012318789 -0.15148644 -0.12003574 0.062078197
000220 22 f6 ba 3d 29 4e 1a bd dc eb 02 3d 07 82 f4 3c
       0.09128977 -0.037672196 0.031963214 0.029847158
000230 c3 47 91 3d b2 15 c4 bd 5a 83 24 be ee 39 1e 3e
       0.070937656 -0.095744506 -0.16065732 0.15451786
000240 7c ad 95 bd 5f 43 bc bd 08 1d 24 bd 62 5c b0 3d
       -0.0730848 -0.091925375 -0.04006675 0.086113706
000250 b8 3c 5a 3d 32 e3 1f bd 57 01 c7 3d 20 b4 1b 3d
       0.053280562 -0.03903503 0.097170524 0.038013577
000260 f4 63 7a 3d 91 23 ab bc 8f ff e5 3d 93 1f 0b 3d
       0.06113048 -0.020890983 0.112303846 0.03396566
000270 30 a9 a3 3d 47 ec c5 3c 64 9a 70 bc be f7 c4 bd
       0.07991254 0.024160517 -0.014685247 -0.096175656
000280 f8 7f 5f bc 00 99 14 be 12 9b c1 bb 34 96 35 3d
       -0.01364135 -0.1451149 -0.0059083784 0.044332698
000290 84 99 8f 3c 76 68 a6 3d 0a 74 35 bd 2d a7 27 bd
       0.017529257 0.08125393 -0.044300117 -0.040930916
0002a0 c5 cc d3 bd b7 31 d9 bd f4 2a 51 bd 3f 16 3e 3d
       -0.10341791 -0.106051855 -0.051066354 0.046407934
0002b0 c0 94 5f bd 09 ee 08 be 1c d0 a3 bd 86 02 b2 bd
       -0.05458522 -0.13372053 -0.07998678 -0.086918876
0002c0 2c 4c 4d 3d 0e c1 e3 3d 2e 48 c6 3d db 05 80 bd
       0.05012147 0.11120807 0.09681736 -0.06251117
0002d0 e9 ed c2 3d 27 c9 6b bd ad d8 3e 3e 08 6c 48 bd
       0.09518034 -0.05756488 0.18637343 -0.04893115
0002e0 08 d8 91 be e0 20 10 be aa 8a 75 bd eb dd 41 3d
       -0.2848513 -0.14075041 -0.059946693 0.047330778
0002f0 ed 40 a3 bd f6 c4 a0 3e 6c 90 3c 3d f4 6e b2 bd
       -0.07971368 0.3140027 0.04603617 -0.08712569
000300 18 3d bd 3d 79 c5 e8 3c b1 e1 9c bd d6 b0 b2 3d
       0.09240168 0.028414475 -0.07660235 0.08725135
000310 64 6b 12 bd 17 b0 53 3d da 24 bf bd 3a 26 0c 3c
       -0.035746947 0.051681604 -0.09333201 0.008554036
000320 2c 56 a7 3d 3b 6a 12 be 05 1f 56 bd 8c 9f a4 bd
       0.08170733 -0.14298336 -0.052275676 -0.08038244
000330 66 7c 64 bd e9 91 26 bd 5c d4 63 3e 35 ea 4f 3e
       -0.055782698 -0.040666495 0.22248977 0.20304187
000340 58 78 44 bd df 6f ee bd 65 cb 59 be e7 f0 61 bd
       -0.04796633 -0.116424315 -0.21268995 -0.055161383
000350 d4 8e 3d 3e 4d c7 60 3d 8a 92 02 3e 95 e9 ba bd
       0.18511516 0.054877568 0.12751213 -0.091265835
000360 79 d8 61 3e 22 37 05 3d 81 0c 9b bd c9 85 44 be
       0.22055234 0.032523282 -0.07570744 -0.1919166
000370 65 86 d1 3d 5d c9 f3 bb 16 bb 67 bd 80 4c d6 bd
       0.10230712 -0.007439776 -0.056574903 -0.1046381
000380 4b c8 81 3d 83 00 85 bd 81 57 21 3d c5 50 04 be
       0.06337031 -0.06494238 0.03939009 -0.12921436
000390 61 5d 01 3c db c3 00 be b7 49 02 bd 9d 93 7c 3d
       0.007895798 -0.12574713 -0.03180858 0.061664212
0003a0 eb 0f ff 3d c1 97 6e bc da 01 8f 3d fc cf c0 3d
       0.12454208 -0.014562548 0.06982775 0.0941467
0003b0 bb fd 98 3d 47 c4 3e bd 3c 69 1b be a2 09 d7 3d
       0.0747027 -0.046573903 -0.15176862 0.10499884
0003c0 2c 38 9e bd 25 12 88 bd 0e ec 82 bd a4 74 e2 3d
       -0.07725558 -0.06644086 -0.0639268 0.11057404
0003d0 df 74 96 3d f3 39 4b bd 2a e3 01 3e 80 a0 c5 3d
       0.0734651 -0.04961581 0.12684312 0.096497536
0003e0 2c cd 67 bd 7f 29 b6 bd d1 30 f8 3d 12 0d fe 3a
       -0.05659215 -0.088946335 0.12118686 0.0019382557
0003f0 a7 c0 20 3d 32 93 16 3e c3 10 48 bc 4c 5d 14 be
       0.039246228 0.14704588 -0.012211028 -0.14488715

context_transformer_0/ffn_layer_0/intermediate_dense/einsum/Einsum;context_transformer_0/ffn_layer_0/intermediate_dense/Relu;context_transformer_0/ffn_layer_0/intermediate_dense/add f4 [32]
000000 86 53 19 be 94 e3 38 bd 30 80 3a be 27 a4 31 be
       -0.14973268 -0.04513891 -0.18212962 -0.17347775
000010 0c 0a 10 be 83 4f 29 be 98 d9 55 be 29 ca de be
       -0.14066333 -0.16534238 -0.20883787 -0.4351361
000020 f0 1a fe bd 91 a0 32 be ac d6 f7 be 98 96 6f be
       -0.12407482 -0.17444064 -0.4840597 -0.2339729
000030 0e 8d 3a be 39 9e 8b be 18 9e 91 be 36 9f 62 be
       -0.1821787 -0.27269152 -0.28440928 -0.22131047
000040 e4 4c a0 be 62 57 98 be c6 d3 cb bd d3 ab 61 be
       -0.31308663 -0.29754168 -0.09952502 -0.22038202
000050 6b 92 83 be 1d f5 84 be 5f e6 2c be 4a 5e 41 bd
       -0.25697646 -0.25968257 -0.16884755 -0.04720906
000060 ac 86 82 be 34 93 22 be 74 40 32 be bb 83 43 be
       -0.2549337 -0.15876466 -0.174074 -0.1909322
000070 83 90 cd bd f0 4b 6c be 3f 96 8f be ba 5e 3e 3c
       -0.10037329 -0.23075843 -0.28044316 0.011619264

context_transformer_0/attention/norm/mul;context_transformer_0/attention/norm/add;context_transformer_0/ffn_layer_0/intermediate_dense/einsum/Einsum;context_transformer_0/ffn_layer_0/intermediate_dense/Relu;context_transformer_0/ffn_layer_0/intermediate_dense/add f4 [32, 32]
000000 9f f9 59 bb 9f 00 02 bc 1c fb 6c 3c ca 6d 7a 3c
       -0.0033260358 -0.007934718 0.014464166 0.015284965
000010 56 62 bd bc 87 c4 42 3c 54 b3 6e 3c 27 16 01 bc
       -0.02311818 0.011887676 0.014569122 -0.007878817
000020 b1 f0 b0 bc 90 a5 45 bc 1c b6 a8 3c 54 e4 ad 3c
       -0.021599146 -0.012063399 0.020594649 0.02122704
000030 a6 5b 94 bc 9f aa 87 bc e0 4d 04 bb 0c f5 a9 3c
       -0.018110108 -0.01656085 -0.0020188019 0.02074673
000040 30 51 ea bc 04 ce 29 bd f4 69 d9 bc e6 c5 2c bb
       -0.028603166 -0.041456237 -0.02653978 -0.0026363074
000050 6e 94 ad bc ba af 94 3b 4f 4b 12 bd e5 96 10 3c
       -0.02118894 0.00453755 -0.03571635 0.008825039
000060 61 1b 38 bc 0d 5f 26 bd f8 2b 0a bc 9c 01 04 bd
       -0.011236996 -0.04061799 -0.0084333345 -0.032228097
000070 82 d1 93 ba b8 b0 6c bc a0 f4 56 bb 62 28 29 3b
       -0.0011277648 -0.01444643 -0.0032799616 0.0025811424
000080 fb 82 d5 3e 7e 71 34 3e 70 46 1f be e5 93 9e bc
       0.41701493 0.17621419 -0.15554214 -0.019357631
000090 a2 42 b1 be 2c 1c 27 3c 38 50 4d be 2e 4e 46 3e
       -0.3462115 0.010199588 -0.20050132 0.1936576
0000a0 ff 12 4a be f1 d4 2d be eb dc ac 3d b1 a7 60 be
       -0.19733809 -0.16975762 0.08440574 -0.21938969
0000b0 ac 5b fd bd 95 fb 7f bc 93 f3 33 3e 2b 88 5f 3d
       -0.12371001 -0.015623947 0.17573385 0.05457322
0000c0 91 65 1a 3e 17 f9 90 3e 0a 5d 36 3e 73 c3 fe bd
       0.15077807 0.2831504 0.17808929 -0.12439623
0000d0 0d 61 f0 bd c2 93 e4 3e e4 75 01 be c4 11 74 be
       -0.11737261 0.4464398 -0.12642628 -0.23834902
0000e0 c6 2b cb bd e7 14 72 bd 77 bb fe bd a7 06 0f be
       -0.099204585 -0.059101965 -0.124381 -0.13967381
0000f0 e6 6c d3 3c c4 81 b4 3c e6 44 0e 3b 72 c8 d7 bd
       0.025808763 0.022034533 0.0021708547 -0.10536279
000100 69 b0 35 3d 38 c7 93 3d 2b 81 59 3e 14 e6 60 3d
       0.04435769 0.07215732 0.2124068 0.05490692
000110 de ae 72 be 84 82 1f be 3b a3 a2 3e bb 2e 25 3b
       -0.23699519 -0.15577132 0.3176516 0.0025204855
000120 90 a9 ff 3d 34 b7 38 3e 42 d9 41 3e 47 53 de bd
       0.12483513 0.18038636 0.18930534 -0.10855728
000130 4e a5 f2 3d 18 63 b0 3c 0c 49 5a be 7b 8f 0d be
       0.118479356 0.021531627 -0.21316928 -0.13824265
000140 87 fc 94 3e f5 62 59 be eb 55 83 be 8c 95 13 be
       0.29098913 -0.21229155 -0.25651488 -0.14412516
000150 31 b3 e7 bd 6a 7b f3 bd a1 50 63 be 1b e9 c0 bd
       -0.11313475 -0.11888774 -0.22198726 -0.09419461
000160 fb 70 49 3d 5e db 63 3e a1 55 97 be 45 6d d2 bc
       0.049180012 0.2225165 -0.29557517 -0.02568687
000170 90 7a 95 be c7 39 3e 3a 27 d0 6c 3e 82 a4 4c 3e
       -0.2919507 0.00072565343 0.23126279 0.1998463
000180 bd c6 12 be d7 0d ae bd 06 9d 2f 3e a5 3e 6b be
       -0.14333625 -0.084987335 0.17149743 -0.22973116
000190 ec 74 b2 3e 73 fc b1 bd e0 5d ca 3e 43 8f bb bd
       0.3485483 -0.08690729 0.39524746 -0.091581844
0001a0 da 4a 2c be c6 b6 b9 bb 1a 36 79 3e c5 91 39 be
       -0.16825429 -0.0056675402 0.24337044 -0.18122013
0001b0 e8 38 15 bd 43 93 e0 bc 6d 3e 96 3e 93 88 9f 3e
       -0.036431223 -0.02741397 0.29344502 0.31158885
0001c0 55 c1 2d 3d fb ed 1f 3e 02 21 f4 3d d4 b3 32 be
       0.042420704 0.15618126 0.11920358 -0.17451411
0001d0 bb 79 0c 3e ce cb d5 be 5b a5 13 3e 07 a1 c0 3e
       0.13718311 -0.41757053 0.14418547 0.37622854
0001e0 2a 70 8a be ec cb 1a be 0b 81 7b be af 68 93 3c
       -0.270387 -0.15116853 -0.24560945 0.017994253
0001f0 fe fb af bd 5b d0 98 be 2c 85 c8 3d 34 54 5c 3e
       -0.085929856 -0.29846463 0.097910255 0.21516496
000200 1b 01 da bb 8e 1d 27 be 26 70 e5 3d 01 f2 aa 3d
       -0.006652964 -0.16319868 0.11203031 0.0834694
000210 9c 90 12 bd 97 14 71 bd 4c d8 d8 3d 4e 67 e2 be
       -0.03578244 -0.058857527 0.1058813 -0.4421944
000220 e4 53 ba bd 31 73 09 bd 45 90 18 3d ae 5f fa be
       -0.09098032 -0.03355712 0.03724696 -0.48901123
000230 56 f4 f9 3d f6 4d 6a bd 20 e8 8e bd c3 6b 98 be
       0.122048065 -0.057203256 -0.06977868 -0.29769716
000240 a5 63 aa bd 11 36 c0 bc c6 dd 0f be 8f b5 84 3d
       -0.08319787 -0.02346328 -0.14049444 0.06479942
000250 bb de 24 be 14 95 0d 3e 21 03 73 bb 8e 99 86 3e
       -0.1610059 0.138264 -0.0037080722 0.26289028
000260 dd 52 25 3e 34 34 a0 3d 6a 53 33 3e b2 69 6e bc
       0.16144891 0.07822457 0.17512289 -0.014551567
000270 3c a8 a8 be 70 5b 9d 3d 82 e1 4d 3d 15 06 45 be
       -0.32940853 0.07683456 0.05026389 -0.19240601
000280 30 75 f4 be f6 bd 27 3e b8 6e a3 3e 08 e2 01 be
       -0.47745657 0.16381058 0.3192041 -0.1268388
000290 e6 73 49 3e 4c 7f 95 be 49 6b 10 3d f8 de 78 be
       0.19673118 -0.29198682 0.035258565 -0.24303806
0002a0 25 ef 71 3e cc be 37 bd 1f 9f 18 3c 31 47 98 3e
       0.23626383 -0.044859692 0.009315281 0.29741815
0002b0 ee 1e 71 3c c4 da a6 3d 25 a9 0a 3e 2f 5c 4c 3d
       0.014716847 0.08147195 0.13541086 0.0498926
0002c0 57 5d 4d be ba 81 a5 3e 57 0a 02 bd e1 0a b7 bc
       -0.20055138 0.32325536 -0.031748142 -0.022344055
0002d0 79 ec 4e 3d 60 18 ba bc 2b 9a b5 3e 03 97 92 3e
       0.050518487 -0.022716701 0.35469183 0.28630838
0002e0 2b 53 88 be 70 f4 a3 3d c7 fa 9d bc aa 1f eb bd
       -0.26625952 0.08005607 -0.019284619 -0.11480649
0002f0 20 be 6f 3e 09 0f 4c bd c6 b4 b2 be 8e 8b 9e 3d
       0.2341237 -0.049819026 -0.34903544 0.07741462
000300 dd 65 d7 bc 13 2f 42 bc 45 63 2b bc 9d 3d 1e bd
       -0.02629369 -0.011852044 -0.010460679 -0.038632978
000310 91 16 54 be 8d 4f b6 bd 0d bb 5b be 8a e1 ad 3d
       -0.20711733 -0.08901892 -0.21458073 0.08490284
000320 56 b2 39 be 86 85 22 3d 68 4b 53 3e 95 94 86 bd
       -0.18134436 0.03967812 0.20634234 -0.065713085
000330 b2 52 a8 ba 2a 87 ed 3b 1a 63 7f be 87 10 cd 3d
       -0.0012842028 0.007248779 -0.24940148 0.10012918
000340 ae 46 54 be fb 5d 5b bd a3 34 3f bd ea d9 df 3b
       -0.20730087 -0.053556424 -0.046681058 0.0068313973
000350 5b 02 57 be 8f f0 a4 be 22 9f 7e be 57 30 bf 3e
       -0.20996992 -0.32214782 -0.24865392 0.37341568
000360 1d 8c 29 3e ff 13 80 3b c0 0e 97 be 1f ef 8b 3e
       0.16557355 0.0039086337 -0.2950344 0.27330872
000370 3c fc 7c be 39 e1 9e be 73 2a 2d 3e 92 39 7c be
       -0.24705595 -0.31031206 0.16910724 -0.24631336
000380 bd 2e a1 3d 0e 0f 23 be b3 c7 d4 be 9f 8b af 3e
       0.07870243 -0.15923712 -0.41558608 0.3428621
000390 7d e6 1f be 1f d4 56 be 00 70 b1 be 1e aa 1e 3e
       -0.15615268 -0.20979355 -0.34655762 0.15494582
0003a0 80 84 11 3d 2e e5 b5 bc 08 23 0b 3e 46 c5 5b 3e
       0.035526752 -0.022204008 0.13587582 0.21461973
0003b0 f0 a9 76 3d 13 f2 19 be 07 97 8d bd 93 e4 a2 3c
       0.06022066 -0.1503375 -0.06913572 0.019884383
0003c0 ac 9c 3b 3c 58 50 31 3e a8 62 24 be 66 48 7f 3c
       0.011450928 0.17315805 -0.1605326 0.015581226
0003d0 61 a8 29 bd c8 8a b8 be 1c 7f d9 be df cb 4c be
       -0.041420344 -0.36043382 -0.4247979 -0.19999646
0003e0 c2 ee c1 3d 17 0a a3 3c cf 55 5d 3e 04 be 79 3d
       0.094693676 0.019902272 0.21614765 0.06097223
0003f0 1a 0d 1d bf 69 2f 95 bc 84 39 25 3e 64 0c a6 3b
       -0.61348116 -0.018211083 0.16135222 0.005067395

context_transformer_0/ffn_layer_1/intermediate_dense/einsum/Einsum;context_transformer_0/ffn_layer_1/intermediate_dense/Relu;context_transformer_0/ffn_layer_1/intermediate_dense/add f4 [32]
000000 43 f2 10 be 6a 91 be 3d 77 2d 4c be 3f 30 8c be
       -0.14154916 0.09305079 -0.19939218 -0.2738056
000010 20 8a 78 be e3 55 01 be 51 ba 23 be 1e 78 83 3c
       -0.2427144 -0.1263042 -0.15989043 0.016048487
000020 a9 24 bf be ea f8 5c be 5b 65 6e be 1b dc 43 be
       -0.37332657 -0.21579328 -0.23280852 -0.19126932
000030 27 cd 82 be 51 81 88 be 17 19 42 be 0f 30 34 be
       -0.25547144 -0.2666116 -0.18954884 -0.17596458
000040 ac b9 88 3a 18 88 50 be dc 98 5f be 86 f3 db be
       0.0010431311 -0.20364416 -0.21835655 -0.4295923
000050 60 8c 27 be 08 a6 57 bd f3 64 ad be bf 63 b6 be
       -0.16362143 -0.052648574 -0.3386608 -0.35622975
000060 71 63 bb be f3 48 ba be 5f 29 88 bd 09 5c ab be
       -0.36599305 -0.3638378 -0.06648516 -0.33468655
000070 f2 be b0 be c0 c5 3d be e5 fc 47 bd b2 d8 50 be
       -0.3452068 -0.18532467 -0.048825163 -0.20395163

context_transformer_0/ffn_layer_0/norm/mul;context_transformer_0/ffn_layer_0/norm/add;context_transformer_0/ffn_layer_1/intermediate_dense/einsum/Einsum;context_transformer_0/ffn_layer_1/intermediate_dense/Relu;context_transformer_0/ffn_layer_1/intermediate_dense/add f4 [32, 32]
000000 a6 71 ad bb 6c e1 5f 3e 33 e0 c1 3b 4d c8 36 be
       -0.005293089 0.21863335 0.005916619 -0.17849846
000010 7c 90 2b be 0d 9f ea 3d 11 13 b6 bd e0 0b 67 be
       -0.16754335 0.11456118 -0.088903554 -0.22563124
000020 df 59 b1 bd 80 ef f4 bd 51 86 dc ba 72 b7 5a 3e
       -0.0865972 -0.119597435 -0.0016824697 0.21359041
000030 9f d3 5f bd 27 5a 80 3e eb 3e e8 bd 19 31 2a be
       -0.054645177 0.2506878 -0.11340126 -0.16620292
000040 bc bf f1 3e dd 84 be bc c6 11 00 be 32 c6 9c bd
       0.47216594 -0.023256714 -0.1250678 -0.0765499
000050 78 a7 c4 3c db 99 11 3e b9 00 4e bd 09 57 6b be
       0.024005637 0.14218847 -0.050293658 -0.2298242
000060 c2 7c 8e bd d6 88 10 bd 1b 04 24 3e 7f f1 d9 3d
       -0.069573894 -0.035286747 0.16017191 0.10641765
000070 1d 86 0f be a5 b2 3c 3e aa 4b 7e bc ab ae 58 3e
       -0.14016004 0.18427522 -0.015520969 0.2116038
000080 fa 10 d2 bd b8 6e a0 bd b5 cd 27 be 2a ae 66 be
       -0.10257144 -0.07833618 -0.16387065 -0.22527376
000090 69 7d 25 be 45 2c 95 be 6b 47 fc 3c 5f fa aa bd
       -0.16161121 -0.29135337 0.030795773 -0.08348536
0000a0 0d 50 58 3c 08 ae 6b 3e 88 60 37 3d 46 b3 dc be
       0.013202679 0.23015606 0.044769794 -0.43105525
0000b0 38 b4 41 be ac 61 3b 3e 8a 25 41 be e5 65 4e 3e
       -0.18916404 0.18298978 -0.18861976 0.20156057
0000c0 45 22 95 3d a7 a3 6b be 59 da 91 be e9 30 ec 3d
       0.07281927 -0.23011647 -0.284869 0.11532766
0000d0 88 1c 4f 3d b2 52 5b 3d 23 12 a9 3d 80 63 ed 3e
       0.05056432 0.05354566 0.082554124 0.46364975
0000e0 bc 8b 40 3e 03 19 69 bb a3 17 08 be d4 05 f5 3d
       0.18803304 -0.0035567887 -0.13290267 0.11964002
0000f0 a8 fc 3b be e9 f8 69 3d f8 81 93 3d dd b1 c5 3c
       -0.183581 0.057122145 0.07202524 0.024132663
000100 33 a7 a8 3c 49 b7 5d 3c bd b0 bb be 69 fc 84 bd
       0.02058754 0.013532468 -0.36658278 -0.06493456
000110 94 68 ba bd 2f 40 8a be fa 90 e5 3c ba e5 0c be
       -0.09101978 -0.27002093 0.028023232 -0.13759509
000120 7a ff f5 3d aa 76 68 be 27 fc a8 3e 3b 98 bf be
       0.12011619 -0.22701517 0.33004877 -0.3742083
000130 a1 26 82 bd ea b2 36 be 5d 07 6c be 74 0b 04 3e
       -0.06355024 -0.17841688 -0.23049684 0.12894994
000140 d5 b0 48 3c 54 a5 92 3d b3 cf 03 3d e4 6d 41 3e
       0.012249191 0.0716044 0.0321805 0.18889576
000150 4f 7f 82 3e d4 e8 23 be 4a b1 45 be 5b e7 ee bd
       0.25487754 -0.16006786 -0.19305912 -0.11665221
000160 4c e1 df 3d c1 b5 e1 bd 50 ac 60 3e 47 65 d1 bd
       0.10931644 -0.11020995 0.21940732 -0.10224395
000170 a0 c7 95 be d2 c6 93 be ff 4e 51 be b7 93 6d 3d
       -0.29253864 -0.28862625 -0.20440291 0.0580022
000180 fe 74 b2 bd da 8f f6 3d dd 85 af be e7 0a 33 be
       -0.08713721 0.12039156 -0.34281817 -0.17484628
000190 bf d1 90 be 91 23 a8 be 55 d0 8b 3e 8b 0b 23 3e
       -0.28285024 -0.32839635 0.27307382 0.15922372
0001a0 af 4b 39 3d f5 c3 ae 3e bb 15 47 be ed c7 0f 3d
       0.045238193 0.34133878 -0.19441883 0.035102773
0001b0 c0 04 c0 3d ce 71 31 be b4 dd a7 3d 14 19 9e 3d
       0.09375906 -0.1732857 0.081965834 0.07719627
0001c0 47 07 3d be 4b ce 09 bc 1e fb c6 bc 7f 52 71 bd
       -0.18459807 -0.0084110005 -0.024289664 -0.058916565
0001d0 3f ab 73 3e d4 6b ed bc 11 ae 9f be 36 01 9b 3e
       0.23795794 -0.02898208 -0.3118749 0.3027436
0001e0 e9 ee 25 3e 2e 28 c5 bd 73 e9 61 be 83 7a fd 3d
       0.16204418 -0.09626804 -0.2206171 0.12376883
0001f0 77 d0 c4 bc 76 30 46 bd 61 ea e5 3c ff 42 ad bd
       -0.024025185 -0.04838606 0.028065862 -0.08460044
000200 47 71 09 3e ad e4 ab be bd 50 af bd ea 57 4c bd
       0.13422118 -0.33572903 -0.085603215 -0.04988853
000210 34 81 2b 3e 3a 04 a6 be 23 86 7a be e9 0d b9 3e
       0.16748506 -0.324251 -0.24465232 0.36143425
000220 b8 5c 34 be 53 2a d0 3d b4 7c 12 3e fc 1f b3 3d
       -0.17613494 0.10164323 0.14305383 0.08746335
000230 97 9c 47 3e d8 9d cf be 42 c3 1e 3e 11 c8 25 bd
       0.19493328 -0.40550113 0.15504172 -0.040474
000240 a8 1b 4f 3e 0d c5 5e be a0 08 81 bb 45 0b be bd
       0.20225394 -0.21754856 -0.0039377958 -0.09279493
000250 d2 c7 b6 3c 60 02 c8 bc e6 74 f7 bd 9b 53 fe bd
       0.022312079 -0.024415195 -0.120828435 -0.1241829
000260 cc 6c e4 3d fb 3d 96 bc 37 59 98 3d 5d aa c2 3d
       0.11153564 -0.018340101 0.074388914 0.095051505
000270 82 24 ff 3d b7 de 07 3e a0 58 18 bd e0 21 55 be
       0.12458135 0.13268553 -0.037193894 -0.20813704
000280 1e 03 30 bd fe e5 96 3e 3c 16 5a 3e 7b 8f d8 be
       -0.042971723 0.29472345 0.21297544 -0.42296967
000290 27 fd 7a be 11 64 1d be 37 72 9e bc 22 be 95 3c
       -0.24510632 -0.15370204 -0.019341571 0.018279139
0002a0 ef ee 7b 3c 9f bc 0f 3e b2 0f 88 be b0 cc d4 be
       0.01537679 0.14036797 -0.26574475 -0.41562414
0002b0 48 68 f6 bd 1d 28 44 be 25 d9 48 3e 74 c7 50 bd
       -0.12031609 -0.19155927 0.19614084 -0.050971463
0002c0 f4 1e 2a be a8 12 58 bd c9 5f 49 be 93 27 3a be
       -0.1661337 -0.052752167 -0.19665445 -0.18179159
0002d0 43 71 8c bd 42 af 8e be 7c 47 37 be ab 53 90 bd
       -0.068575405 -0.27868086 -0.17898363 -0.070472084
0002e0 ad d9 4f be 30 83 bc 3d f4 cc 94 3d 27 67 bd 3c
       -0.2029788 0.092047095 0.07265654 0.023120476
0002f0 da e5 d9 3d 61 aa fd 3d f1 82 a3 3d a3 9c d4 3d
       0.10639544 0.12386013 0.079839595 0.103814386
000300 9b c1 06 3c b8 92 89 3e de a7 37 3e ce fc b4 bd
       0.00822487 0.2686975 0.1793513 -0.08837281
000310 34 6c 77 bd a0 48 d4 bd 5e cf 7b be 6c f8 8c bd
       -0.060405925 -0.103654146 -0.24590823 -0.0688332
000320 8c fc 6c be ff f9 13 be 42 a2 a9 bd d5 5f be be
       -0.23143214 -0.14450835 -0.08282901 -0.3718249
000330 18 bf 22 be dc 6d 44 bc 41 78 16 3d 73 c4 18 3e
       -0.15893209 -0.011989083 0.036735777 0.1491869
000340 fb 83 0f 3d 24 f0 da be a3 16 7a 3e 6d 39 4a 3e
       0.035037976 -0.42761338 0.24422698 0.19748469
000350 e3 5f 87 ba e0 58 9d ba d3 22 f0 bd fd 2a fa 3c
       -0.0010328259 -0.0012004636 -0.11725392 0.030538077
000360 b8 2e ff bd 78 0d 46 be 65 c4 ba 3c 51 9b 7f be
       -0.12460083 -0.19341075 0.022798726 -0.24961592
000370 6f 85 fe bc a0 b1 47 be 55 d8 53 3c 3f ba fd bd
       -0.031069485 -0.19501352 0.012929996 -0.12389039
000380 41 02 3b be 1f 1a 01 3e 60 b1 1a be aa 21 96 be
       -0.18262579 0.1260762 -0.15106726 -0.2932256
000390 4e e1 b9 3b 92 3b 9d bc 0a 13 a8 be bf 90 21 be
       0.0056726104 -0.019193444 -0.32827026 -0.15777873
0003a0 36 7c 4d 3d 93 9e e3 3d 17 2c 78 3e d5 ab 4e 3e
       0.050167285 0.1111423 0.24235569 0.20182736
0003b0 cb 16 b7 3d 34 ba a7 bb a8 d9 d4 3d db e0 ae bc
       0.08939894 -0.0051186327 0.10393077 -0.021347454
0003c0 25 3f e4 bd 3f 6c b8 3e 79 6f d2 bd 46 59 b6 3d
       -0.11144856 0.36020085 -0.10275168 0.08903746
0003d0 28 9c 42 bd 57 12 be 3d 49 29 8b 3a 91 e5 3c bc
       -0.047512203 0.09280842 0.0010617162 -0.011529342
0003e0 a4 ce 7d 3e 06 c2 85 bd 07 b7 a1 bd ca 50 5c 3d
       0.24785858 -0.06531148 -0.07896238 0.053787984
0003f0 c8 4a d6 3e 93 91 04 3c 29 c6 5a be 5b 99 86 3d
       0.4185393 0.008091348 -0.21364655 0.06572219

context_transformer_0/ffn_layer_2/intermediate_dense/einsum/Einsum;context_transformer_0/ffn_layer_2/intermediate_dense/Relu;context_transformer_0/ffn_layer_2/intermediate_dense/add f4 [32]
000000 17 07 52 be 0f 6c 67 be f9 df 01 be fc 18 88 bd
       -0.20510517 -0.22599815 -0.12683095 -0.066453904
000010 af e1 f5 bb 14 20 21 bd 79 8b ad be da 1c 8f be
       -0.00750371 -0.039337233 -0.33895472 -0.279517
000020 a6 b3 01 be cb d6 aa be e8 c1 ad be 89 79 63 be
       -0.12666187 -0.33367 -0.33937 -0.2221433
000030 59 e8 88 be e3 d0 1f 3e eb 8f 1e be 41 48 4c be
       -0.26739767 0.15607028 -0.15484588 -0.19949438
000040 75 2c d5 bd 34 2e cc bd 76 f4 cb bd 70 82 cd bc
       -0.1040887 -0.0996975 -0.099587366 -0.025086612
000050 1d 7e 81 be 54 ec 64 be 9b ea 4c be 0c a4 ef 3c
       -0.2529153 -0.22355777 -0.2001137 0.029253028
000060 bb db 8c bd 4c ab 59 be be 3f 43 be ef 79 92 bd
       -0.06877848 -0.21256751 -0.19067284 -0.07152163
000070 9d 53 5f be 5e 29 6a be a2 da 52 bd 0e f4 90 be
       -0.2180924 -0.22867343 -0.051478036 -0.283112
